        Layer (type)               Output Shape         Param #
            Conv2d-1         [-1, 64, 128, 128]           6,976
            Conv2d-2         [-1, 32, 128, 128]          18,464
         LeakyReLU-3         [-1, 32, 128, 128]               0
            Conv2d-4         [-1, 32, 128, 128]          27,680
         LeakyReLU-5         [-1, 32, 128, 128]               0
            Conv2d-6         [-1, 32, 128, 128]          36,896
         LeakyReLU-7         [-1, 32, 128, 128]               0
            Conv2d-8         [-1, 32, 128, 128]          46,112
         LeakyReLU-9         [-1, 32, 128, 128]               0
           Conv2d-10         [-1, 64, 128, 128]         110,656
ResidualDenseBlock-11         [-1, 64, 128, 128]               0
           Conv2d-12         [-1, 32, 128, 128]          18,464
        LeakyReLU-13         [-1, 32, 128, 128]               0
           Conv2d-14         [-1, 32, 128, 128]          27,680
        LeakyReLU-15         [-1, 32, 128, 128]               0
           Conv2d-16         [-1, 32, 128, 128]          36,896
        LeakyReLU-17         [-1, 32, 128, 128]               0
           Conv2d-18         [-1, 32, 128, 128]          46,112
        LeakyReLU-19         [-1, 32, 128, 128]               0
           Conv2d-20         [-1, 64, 128, 128]         110,656
ResidualDenseBlock-21         [-1, 64, 128, 128]               0
           Conv2d-22         [-1, 32, 128, 128]          18,464
        LeakyReLU-23         [-1, 32, 128, 128]               0
           Conv2d-24         [-1, 32, 128, 128]          27,680
        LeakyReLU-25         [-1, 32, 128, 128]               0
           Conv2d-26         [-1, 32, 128, 128]          36,896
        LeakyReLU-27         [-1, 32, 128, 128]               0
           Conv2d-28         [-1, 32, 128, 128]          46,112
        LeakyReLU-29         [-1, 32, 128, 128]               0
           Conv2d-30         [-1, 64, 128, 128]         110,656
ResidualDenseBlock-31         [-1, 64, 128, 128]               0
             RRDB-32         [-1, 64, 128, 128]               0
           Conv2d-33         [-1, 32, 128, 128]          18,464
        LeakyReLU-34         [-1, 32, 128, 128]               0
           Conv2d-35         [-1, 32, 128, 128]          27,680
        LeakyReLU-36         [-1, 32, 128, 128]               0
           Conv2d-37         [-1, 32, 128, 128]          36,896
        LeakyReLU-38         [-1, 32, 128, 128]               0
           Conv2d-39         [-1, 32, 128, 128]          46,112
        LeakyReLU-40         [-1, 32, 128, 128]               0
           Conv2d-41         [-1, 64, 128, 128]         110,656
ResidualDenseBlock-42         [-1, 64, 128, 128]               0
           Conv2d-43         [-1, 32, 128, 128]          18,464
        LeakyReLU-44         [-1, 32, 128, 128]               0
           Conv2d-45         [-1, 32, 128, 128]          27,680
        LeakyReLU-46         [-1, 32, 128, 128]               0
           Conv2d-47         [-1, 32, 128, 128]          36,896
        LeakyReLU-48         [-1, 32, 128, 128]               0
           Conv2d-49         [-1, 32, 128, 128]          46,112
        LeakyReLU-50         [-1, 32, 128, 128]               0
           Conv2d-51         [-1, 64, 128, 128]         110,656
ResidualDenseBlock-52         [-1, 64, 128, 128]               0
           Conv2d-53         [-1, 32, 128, 128]          18,464
        LeakyReLU-54         [-1, 32, 128, 128]               0
           Conv2d-55         [-1, 32, 128, 128]          27,680
        LeakyReLU-56         [-1, 32, 128, 128]               0
           Conv2d-57         [-1, 32, 128, 128]          36,896
        LeakyReLU-58         [-1, 32, 128, 128]               0
           Conv2d-59         [-1, 32, 128, 128]          46,112
        LeakyReLU-60         [-1, 32, 128, 128]               0
           Conv2d-61         [-1, 64, 128, 128]         110,656
ResidualDenseBlock-62         [-1, 64, 128, 128]               0
             RRDB-63         [-1, 64, 128, 128]               0
           Conv2d-64         [-1, 32, 128, 128]          18,464
        LeakyReLU-65         [-1, 32, 128, 128]               0
           Conv2d-66         [-1, 32, 128, 128]          27,680
        LeakyReLU-67         [-1, 32, 128, 128]               0
           Conv2d-68         [-1, 32, 128, 128]          36,896
        LeakyReLU-69         [-1, 32, 128, 128]               0
           Conv2d-70         [-1, 32, 128, 128]          46,112
        LeakyReLU-71         [-1, 32, 128, 128]               0
           Conv2d-72         [-1, 64, 128, 128]         110,656
ResidualDenseBlock-73         [-1, 64, 128, 128]               0
           Conv2d-74         [-1, 32, 128, 128]          18,464
        LeakyReLU-75         [-1, 32, 128, 128]               0
           Conv2d-76         [-1, 32, 128, 128]          27,680
        LeakyReLU-77         [-1, 32, 128, 128]               0
           Conv2d-78         [-1, 32, 128, 128]          36,896
        LeakyReLU-79         [-1, 32, 128, 128]               0
           Conv2d-80         [-1, 32, 128, 128]          46,112
        LeakyReLU-81         [-1, 32, 128, 128]               0
           Conv2d-82         [-1, 64, 128, 128]         110,656
ResidualDenseBlock-83         [-1, 64, 128, 128]               0
           Conv2d-84         [-1, 32, 128, 128]          18,464
        LeakyReLU-85         [-1, 32, 128, 128]               0
           Conv2d-86         [-1, 32, 128, 128]          27,680
        LeakyReLU-87         [-1, 32, 128, 128]               0
           Conv2d-88         [-1, 32, 128, 128]          36,896
        LeakyReLU-89         [-1, 32, 128, 128]               0
           Conv2d-90         [-1, 32, 128, 128]          46,112
        LeakyReLU-91         [-1, 32, 128, 128]               0
           Conv2d-92         [-1, 64, 128, 128]         110,656
ResidualDenseBlock-93         [-1, 64, 128, 128]               0
             RRDB-94         [-1, 64, 128, 128]               0
           Conv2d-95         [-1, 32, 128, 128]          18,464
        LeakyReLU-96         [-1, 32, 128, 128]               0
           Conv2d-97         [-1, 32, 128, 128]          27,680
        LeakyReLU-98         [-1, 32, 128, 128]               0
           Conv2d-99         [-1, 32, 128, 128]          36,896
       LeakyReLU-100         [-1, 32, 128, 128]               0
          Conv2d-101         [-1, 32, 128, 128]          46,112
       LeakyReLU-102         [-1, 32, 128, 128]               0
          Conv2d-103         [-1, 64, 128, 128]         110,656
ResidualDenseBlock-104         [-1, 64, 128, 128]               0
          Conv2d-105         [-1, 32, 128, 128]          18,464
       LeakyReLU-106         [-1, 32, 128, 128]               0
          Conv2d-107         [-1, 32, 128, 128]          27,680
       LeakyReLU-108         [-1, 32, 128, 128]               0
          Conv2d-109         [-1, 32, 128, 128]          36,896
       LeakyReLU-110         [-1, 32, 128, 128]               0
          Conv2d-111         [-1, 32, 128, 128]          46,112
       LeakyReLU-112         [-1, 32, 128, 128]               0
          Conv2d-113         [-1, 64, 128, 128]         110,656
ResidualDenseBlock-114         [-1, 64, 128, 128]               0
          Conv2d-115         [-1, 32, 128, 128]          18,464
       LeakyReLU-116         [-1, 32, 128, 128]               0
          Conv2d-117         [-1, 32, 128, 128]          27,680
       LeakyReLU-118         [-1, 32, 128, 128]               0
          Conv2d-119         [-1, 32, 128, 128]          36,896
       LeakyReLU-120         [-1, 32, 128, 128]               0
          Conv2d-121         [-1, 32, 128, 128]          46,112
       LeakyReLU-122         [-1, 32, 128, 128]               0
          Conv2d-123         [-1, 64, 128, 128]         110,656
ResidualDenseBlock-124         [-1, 64, 128, 128]               0
            RRDB-125         [-1, 64, 128, 128]               0
          Conv2d-126         [-1, 32, 128, 128]          18,464
       LeakyReLU-127         [-1, 32, 128, 128]               0
          Conv2d-128         [-1, 32, 128, 128]          27,680
       LeakyReLU-129         [-1, 32, 128, 128]               0
          Conv2d-130         [-1, 32, 128, 128]          36,896
       LeakyReLU-131         [-1, 32, 128, 128]               0
          Conv2d-132         [-1, 32, 128, 128]          46,112
       LeakyReLU-133         [-1, 32, 128, 128]               0
          Conv2d-134         [-1, 64, 128, 128]         110,656
ResidualDenseBlock-135         [-1, 64, 128, 128]               0
          Conv2d-136         [-1, 32, 128, 128]          18,464
       LeakyReLU-137         [-1, 32, 128, 128]               0
          Conv2d-138         [-1, 32, 128, 128]          27,680
       LeakyReLU-139         [-1, 32, 128, 128]               0
          Conv2d-140         [-1, 32, 128, 128]          36,896
       LeakyReLU-141         [-1, 32, 128, 128]               0
          Conv2d-142         [-1, 32, 128, 128]          46,112
       LeakyReLU-143         [-1, 32, 128, 128]               0
          Conv2d-144         [-1, 64, 128, 128]         110,656
ResidualDenseBlock-145         [-1, 64, 128, 128]               0
          Conv2d-146         [-1, 32, 128, 128]          18,464
       LeakyReLU-147         [-1, 32, 128, 128]               0
          Conv2d-148         [-1, 32, 128, 128]          27,680
       LeakyReLU-149         [-1, 32, 128, 128]               0
          Conv2d-150         [-1, 32, 128, 128]          36,896
       LeakyReLU-151         [-1, 32, 128, 128]               0
          Conv2d-152         [-1, 32, 128, 128]          46,112
       LeakyReLU-153         [-1, 32, 128, 128]               0
          Conv2d-154         [-1, 64, 128, 128]         110,656
ResidualDenseBlock-155         [-1, 64, 128, 128]               0
            RRDB-156         [-1, 64, 128, 128]               0
          Conv2d-157         [-1, 32, 128, 128]          18,464
       LeakyReLU-158         [-1, 32, 128, 128]               0
          Conv2d-159         [-1, 32, 128, 128]          27,680
       LeakyReLU-160         [-1, 32, 128, 128]               0
          Conv2d-161         [-1, 32, 128, 128]          36,896
       LeakyReLU-162         [-1, 32, 128, 128]               0
          Conv2d-163         [-1, 32, 128, 128]          46,112
       LeakyReLU-164         [-1, 32, 128, 128]               0
          Conv2d-165         [-1, 64, 128, 128]         110,656
ResidualDenseBlock-166         [-1, 64, 128, 128]               0
          Conv2d-167         [-1, 32, 128, 128]          18,464
       LeakyReLU-168         [-1, 32, 128, 128]               0
          Conv2d-169         [-1, 32, 128, 128]          27,680
       LeakyReLU-170         [-1, 32, 128, 128]               0
          Conv2d-171         [-1, 32, 128, 128]          36,896
       LeakyReLU-172         [-1, 32, 128, 128]               0
          Conv2d-173         [-1, 32, 128, 128]          46,112
       LeakyReLU-174         [-1, 32, 128, 128]               0
          Conv2d-175         [-1, 64, 128, 128]         110,656
ResidualDenseBlock-176         [-1, 64, 128, 128]               0
          Conv2d-177         [-1, 32, 128, 128]          18,464
       LeakyReLU-178         [-1, 32, 128, 128]               0
          Conv2d-179         [-1, 32, 128, 128]          27,680
       LeakyReLU-180         [-1, 32, 128, 128]               0
          Conv2d-181         [-1, 32, 128, 128]          36,896
       LeakyReLU-182         [-1, 32, 128, 128]               0
          Conv2d-183         [-1, 32, 128, 128]          46,112
       LeakyReLU-184         [-1, 32, 128, 128]               0
          Conv2d-185         [-1, 64, 128, 128]         110,656
ResidualDenseBlock-186         [-1, 64, 128, 128]               0
            RRDB-187         [-1, 64, 128, 128]               0
          Conv2d-188         [-1, 32, 128, 128]          18,464
       LeakyReLU-189         [-1, 32, 128, 128]               0
          Conv2d-190         [-1, 32, 128, 128]          27,680
       LeakyReLU-191         [-1, 32, 128, 128]               0
          Conv2d-192         [-1, 32, 128, 128]          36,896
       LeakyReLU-193         [-1, 32, 128, 128]               0
          Conv2d-194         [-1, 32, 128, 128]          46,112
       LeakyReLU-195         [-1, 32, 128, 128]               0
          Conv2d-196         [-1, 64, 128, 128]         110,656
ResidualDenseBlock-197         [-1, 64, 128, 128]               0
          Conv2d-198         [-1, 32, 128, 128]          18,464
       LeakyReLU-199         [-1, 32, 128, 128]               0
          Conv2d-200         [-1, 32, 128, 128]          27,680
       LeakyReLU-201         [-1, 32, 128, 128]               0
          Conv2d-202         [-1, 32, 128, 128]          36,896
       LeakyReLU-203         [-1, 32, 128, 128]               0
          Conv2d-204         [-1, 32, 128, 128]          46,112
       LeakyReLU-205         [-1, 32, 128, 128]               0
          Conv2d-206         [-1, 64, 128, 128]         110,656
ResidualDenseBlock-207         [-1, 64, 128, 128]               0
          Conv2d-208         [-1, 32, 128, 128]          18,464
       LeakyReLU-209         [-1, 32, 128, 128]               0
          Conv2d-210         [-1, 32, 128, 128]          27,680
       LeakyReLU-211         [-1, 32, 128, 128]               0
          Conv2d-212         [-1, 32, 128, 128]          36,896
       LeakyReLU-213         [-1, 32, 128, 128]               0
          Conv2d-214         [-1, 32, 128, 128]          46,112
       LeakyReLU-215         [-1, 32, 128, 128]               0
          Conv2d-216         [-1, 64, 128, 128]         110,656
ResidualDenseBlock-217         [-1, 64, 128, 128]               0
            RRDB-218         [-1, 64, 128, 128]               0
          Conv2d-219         [-1, 32, 128, 128]          18,464
       LeakyReLU-220         [-1, 32, 128, 128]               0
          Conv2d-221         [-1, 32, 128, 128]          27,680
       LeakyReLU-222         [-1, 32, 128, 128]               0
          Conv2d-223         [-1, 32, 128, 128]          36,896
       LeakyReLU-224         [-1, 32, 128, 128]               0
          Conv2d-225         [-1, 32, 128, 128]          46,112
       LeakyReLU-226         [-1, 32, 128, 128]               0
          Conv2d-227         [-1, 64, 128, 128]         110,656
ResidualDenseBlock-228         [-1, 64, 128, 128]               0
          Conv2d-229         [-1, 32, 128, 128]          18,464
       LeakyReLU-230         [-1, 32, 128, 128]               0
          Conv2d-231         [-1, 32, 128, 128]          27,680
       LeakyReLU-232         [-1, 32, 128, 128]               0
          Conv2d-233         [-1, 32, 128, 128]          36,896
       LeakyReLU-234         [-1, 32, 128, 128]               0
          Conv2d-235         [-1, 32, 128, 128]          46,112
       LeakyReLU-236         [-1, 32, 128, 128]               0
          Conv2d-237         [-1, 64, 128, 128]         110,656
ResidualDenseBlock-238         [-1, 64, 128, 128]               0
          Conv2d-239         [-1, 32, 128, 128]          18,464
       LeakyReLU-240         [-1, 32, 128, 128]               0
          Conv2d-241         [-1, 32, 128, 128]          27,680
       LeakyReLU-242         [-1, 32, 128, 128]               0
          Conv2d-243         [-1, 32, 128, 128]          36,896
       LeakyReLU-244         [-1, 32, 128, 128]               0
          Conv2d-245         [-1, 32, 128, 128]          46,112
       LeakyReLU-246         [-1, 32, 128, 128]               0
          Conv2d-247         [-1, 64, 128, 128]         110,656
ResidualDenseBlock-248         [-1, 64, 128, 128]               0
            RRDB-249         [-1, 64, 128, 128]               0
          Conv2d-250         [-1, 32, 128, 128]          18,464
       LeakyReLU-251         [-1, 32, 128, 128]               0
          Conv2d-252         [-1, 32, 128, 128]          27,680
       LeakyReLU-253         [-1, 32, 128, 128]               0
          Conv2d-254         [-1, 32, 128, 128]          36,896
       LeakyReLU-255         [-1, 32, 128, 128]               0
          Conv2d-256         [-1, 32, 128, 128]          46,112
       LeakyReLU-257         [-1, 32, 128, 128]               0
          Conv2d-258         [-1, 64, 128, 128]         110,656
ResidualDenseBlock-259         [-1, 64, 128, 128]               0
          Conv2d-260         [-1, 32, 128, 128]          18,464
       LeakyReLU-261         [-1, 32, 128, 128]               0
          Conv2d-262         [-1, 32, 128, 128]          27,680
       LeakyReLU-263         [-1, 32, 128, 128]               0
          Conv2d-264         [-1, 32, 128, 128]          36,896
       LeakyReLU-265         [-1, 32, 128, 128]               0
          Conv2d-266         [-1, 32, 128, 128]          46,112
       LeakyReLU-267         [-1, 32, 128, 128]               0
          Conv2d-268         [-1, 64, 128, 128]         110,656
ResidualDenseBlock-269         [-1, 64, 128, 128]               0
          Conv2d-270         [-1, 32, 128, 128]          18,464
       LeakyReLU-271         [-1, 32, 128, 128]               0
          Conv2d-272         [-1, 32, 128, 128]          27,680
       LeakyReLU-273         [-1, 32, 128, 128]               0
          Conv2d-274         [-1, 32, 128, 128]          36,896
       LeakyReLU-275         [-1, 32, 128, 128]               0
          Conv2d-276         [-1, 32, 128, 128]          46,112
       LeakyReLU-277         [-1, 32, 128, 128]               0
          Conv2d-278         [-1, 64, 128, 128]         110,656
ResidualDenseBlock-279         [-1, 64, 128, 128]               0
            RRDB-280         [-1, 64, 128, 128]               0
          Conv2d-281         [-1, 32, 128, 128]          18,464
       LeakyReLU-282         [-1, 32, 128, 128]               0
          Conv2d-283         [-1, 32, 128, 128]          27,680
       LeakyReLU-284         [-1, 32, 128, 128]               0
          Conv2d-285         [-1, 32, 128, 128]          36,896
       LeakyReLU-286         [-1, 32, 128, 128]               0
          Conv2d-287         [-1, 32, 128, 128]          46,112
       LeakyReLU-288         [-1, 32, 128, 128]               0
          Conv2d-289         [-1, 64, 128, 128]         110,656
ResidualDenseBlock-290         [-1, 64, 128, 128]               0
          Conv2d-291         [-1, 32, 128, 128]          18,464
       LeakyReLU-292         [-1, 32, 128, 128]               0
          Conv2d-293         [-1, 32, 128, 128]          27,680
       LeakyReLU-294         [-1, 32, 128, 128]               0
          Conv2d-295         [-1, 32, 128, 128]          36,896
       LeakyReLU-296         [-1, 32, 128, 128]               0
          Conv2d-297         [-1, 32, 128, 128]          46,112
       LeakyReLU-298         [-1, 32, 128, 128]               0
          Conv2d-299         [-1, 64, 128, 128]         110,656
ResidualDenseBlock-300         [-1, 64, 128, 128]               0
          Conv2d-301         [-1, 32, 128, 128]          18,464
       LeakyReLU-302         [-1, 32, 128, 128]               0
          Conv2d-303         [-1, 32, 128, 128]          27,680
       LeakyReLU-304         [-1, 32, 128, 128]               0
          Conv2d-305         [-1, 32, 128, 128]          36,896
       LeakyReLU-306         [-1, 32, 128, 128]               0
          Conv2d-307         [-1, 32, 128, 128]          46,112
       LeakyReLU-308         [-1, 32, 128, 128]               0
          Conv2d-309         [-1, 64, 128, 128]         110,656
ResidualDenseBlock-310         [-1, 64, 128, 128]               0
            RRDB-311         [-1, 64, 128, 128]               0
          Conv2d-312         [-1, 32, 128, 128]          18,464
       LeakyReLU-313         [-1, 32, 128, 128]               0
          Conv2d-314         [-1, 32, 128, 128]          27,680
       LeakyReLU-315         [-1, 32, 128, 128]               0
          Conv2d-316         [-1, 32, 128, 128]          36,896
       LeakyReLU-317         [-1, 32, 128, 128]               0
          Conv2d-318         [-1, 32, 128, 128]          46,112
       LeakyReLU-319         [-1, 32, 128, 128]               0
          Conv2d-320         [-1, 64, 128, 128]         110,656
ResidualDenseBlock-321         [-1, 64, 128, 128]               0
          Conv2d-322         [-1, 32, 128, 128]          18,464
       LeakyReLU-323         [-1, 32, 128, 128]               0
          Conv2d-324         [-1, 32, 128, 128]          27,680
       LeakyReLU-325         [-1, 32, 128, 128]               0
          Conv2d-326         [-1, 32, 128, 128]          36,896
       LeakyReLU-327         [-1, 32, 128, 128]               0
          Conv2d-328         [-1, 32, 128, 128]          46,112
       LeakyReLU-329         [-1, 32, 128, 128]               0
          Conv2d-330         [-1, 64, 128, 128]         110,656
ResidualDenseBlock-331         [-1, 64, 128, 128]               0
          Conv2d-332         [-1, 32, 128, 128]          18,464
       LeakyReLU-333         [-1, 32, 128, 128]               0
          Conv2d-334         [-1, 32, 128, 128]          27,680
       LeakyReLU-335         [-1, 32, 128, 128]               0
          Conv2d-336         [-1, 32, 128, 128]          36,896
       LeakyReLU-337         [-1, 32, 128, 128]               0
          Conv2d-338         [-1, 32, 128, 128]          46,112
       LeakyReLU-339         [-1, 32, 128, 128]               0
          Conv2d-340         [-1, 64, 128, 128]         110,656
ResidualDenseBlock-341         [-1, 64, 128, 128]               0
            RRDB-342         [-1, 64, 128, 128]               0
          Conv2d-343         [-1, 32, 128, 128]          18,464
       LeakyReLU-344         [-1, 32, 128, 128]               0
          Conv2d-345         [-1, 32, 128, 128]          27,680
       LeakyReLU-346         [-1, 32, 128, 128]               0
          Conv2d-347         [-1, 32, 128, 128]          36,896
       LeakyReLU-348         [-1, 32, 128, 128]               0
          Conv2d-349         [-1, 32, 128, 128]          46,112
       LeakyReLU-350         [-1, 32, 128, 128]               0
          Conv2d-351         [-1, 64, 128, 128]         110,656
ResidualDenseBlock-352         [-1, 64, 128, 128]               0
          Conv2d-353         [-1, 32, 128, 128]          18,464
       LeakyReLU-354         [-1, 32, 128, 128]               0
          Conv2d-355         [-1, 32, 128, 128]          27,680
       LeakyReLU-356         [-1, 32, 128, 128]               0
          Conv2d-357         [-1, 32, 128, 128]          36,896
       LeakyReLU-358         [-1, 32, 128, 128]               0
          Conv2d-359         [-1, 32, 128, 128]          46,112
       LeakyReLU-360         [-1, 32, 128, 128]               0
          Conv2d-361         [-1, 64, 128, 128]         110,656
ResidualDenseBlock-362         [-1, 64, 128, 128]               0
          Conv2d-363         [-1, 32, 128, 128]          18,464
       LeakyReLU-364         [-1, 32, 128, 128]               0
          Conv2d-365         [-1, 32, 128, 128]          27,680
       LeakyReLU-366         [-1, 32, 128, 128]               0
          Conv2d-367         [-1, 32, 128, 128]          36,896
       LeakyReLU-368         [-1, 32, 128, 128]               0
          Conv2d-369         [-1, 32, 128, 128]          46,112
       LeakyReLU-370         [-1, 32, 128, 128]               0
          Conv2d-371         [-1, 64, 128, 128]         110,656
ResidualDenseBlock-372         [-1, 64, 128, 128]               0
            RRDB-373         [-1, 64, 128, 128]               0
          Conv2d-374         [-1, 32, 128, 128]          18,464
       LeakyReLU-375         [-1, 32, 128, 128]               0
          Conv2d-376         [-1, 32, 128, 128]          27,680
       LeakyReLU-377         [-1, 32, 128, 128]               0
          Conv2d-378         [-1, 32, 128, 128]          36,896
       LeakyReLU-379         [-1, 32, 128, 128]               0
          Conv2d-380         [-1, 32, 128, 128]          46,112
       LeakyReLU-381         [-1, 32, 128, 128]               0
          Conv2d-382         [-1, 64, 128, 128]         110,656
ResidualDenseBlock-383         [-1, 64, 128, 128]               0
          Conv2d-384         [-1, 32, 128, 128]          18,464
       LeakyReLU-385         [-1, 32, 128, 128]               0
          Conv2d-386         [-1, 32, 128, 128]          27,680
       LeakyReLU-387         [-1, 32, 128, 128]               0
          Conv2d-388         [-1, 32, 128, 128]          36,896
       LeakyReLU-389         [-1, 32, 128, 128]               0
          Conv2d-390         [-1, 32, 128, 128]          46,112
       LeakyReLU-391         [-1, 32, 128, 128]               0
          Conv2d-392         [-1, 64, 128, 128]         110,656
ResidualDenseBlock-393         [-1, 64, 128, 128]               0
          Conv2d-394         [-1, 32, 128, 128]          18,464
       LeakyReLU-395         [-1, 32, 128, 128]               0
          Conv2d-396         [-1, 32, 128, 128]          27,680
       LeakyReLU-397         [-1, 32, 128, 128]               0
          Conv2d-398         [-1, 32, 128, 128]          36,896
       LeakyReLU-399         [-1, 32, 128, 128]               0
          Conv2d-400         [-1, 32, 128, 128]          46,112
       LeakyReLU-401         [-1, 32, 128, 128]               0
          Conv2d-402         [-1, 64, 128, 128]         110,656
ResidualDenseBlock-403         [-1, 64, 128, 128]               0
            RRDB-404         [-1, 64, 128, 128]               0
          Conv2d-405         [-1, 32, 128, 128]          18,464
       LeakyReLU-406         [-1, 32, 128, 128]               0
          Conv2d-407         [-1, 32, 128, 128]          27,680
       LeakyReLU-408         [-1, 32, 128, 128]               0
          Conv2d-409         [-1, 32, 128, 128]          36,896
       LeakyReLU-410         [-1, 32, 128, 128]               0
          Conv2d-411         [-1, 32, 128, 128]          46,112
       LeakyReLU-412         [-1, 32, 128, 128]               0
          Conv2d-413         [-1, 64, 128, 128]         110,656
ResidualDenseBlock-414         [-1, 64, 128, 128]               0
          Conv2d-415         [-1, 32, 128, 128]          18,464
       LeakyReLU-416         [-1, 32, 128, 128]               0
          Conv2d-417         [-1, 32, 128, 128]          27,680
       LeakyReLU-418         [-1, 32, 128, 128]               0
          Conv2d-419         [-1, 32, 128, 128]          36,896
       LeakyReLU-420         [-1, 32, 128, 128]               0
          Conv2d-421         [-1, 32, 128, 128]          46,112
       LeakyReLU-422         [-1, 32, 128, 128]               0
          Conv2d-423         [-1, 64, 128, 128]         110,656
ResidualDenseBlock-424         [-1, 64, 128, 128]               0
          Conv2d-425         [-1, 32, 128, 128]          18,464
       LeakyReLU-426         [-1, 32, 128, 128]               0
          Conv2d-427         [-1, 32, 128, 128]          27,680
       LeakyReLU-428         [-1, 32, 128, 128]               0
          Conv2d-429         [-1, 32, 128, 128]          36,896
       LeakyReLU-430         [-1, 32, 128, 128]               0
          Conv2d-431         [-1, 32, 128, 128]          46,112
       LeakyReLU-432         [-1, 32, 128, 128]               0
          Conv2d-433         [-1, 64, 128, 128]         110,656
ResidualDenseBlock-434         [-1, 64, 128, 128]               0
            RRDB-435         [-1, 64, 128, 128]               0
          Conv2d-436         [-1, 32, 128, 128]          18,464
       LeakyReLU-437         [-1, 32, 128, 128]               0
          Conv2d-438         [-1, 32, 128, 128]          27,680
       LeakyReLU-439         [-1, 32, 128, 128]               0
          Conv2d-440         [-1, 32, 128, 128]          36,896
       LeakyReLU-441         [-1, 32, 128, 128]               0
          Conv2d-442         [-1, 32, 128, 128]          46,112
       LeakyReLU-443         [-1, 32, 128, 128]               0
          Conv2d-444         [-1, 64, 128, 128]         110,656
ResidualDenseBlock-445         [-1, 64, 128, 128]               0
          Conv2d-446         [-1, 32, 128, 128]          18,464
       LeakyReLU-447         [-1, 32, 128, 128]               0
          Conv2d-448         [-1, 32, 128, 128]          27,680
       LeakyReLU-449         [-1, 32, 128, 128]               0
          Conv2d-450         [-1, 32, 128, 128]          36,896
       LeakyReLU-451         [-1, 32, 128, 128]               0
          Conv2d-452         [-1, 32, 128, 128]          46,112
       LeakyReLU-453         [-1, 32, 128, 128]               0
          Conv2d-454         [-1, 64, 128, 128]         110,656
ResidualDenseBlock-455         [-1, 64, 128, 128]               0
          Conv2d-456         [-1, 32, 128, 128]          18,464
       LeakyReLU-457         [-1, 32, 128, 128]               0
          Conv2d-458         [-1, 32, 128, 128]          27,680
       LeakyReLU-459         [-1, 32, 128, 128]               0
          Conv2d-460         [-1, 32, 128, 128]          36,896
       LeakyReLU-461         [-1, 32, 128, 128]               0
          Conv2d-462         [-1, 32, 128, 128]          46,112
       LeakyReLU-463         [-1, 32, 128, 128]               0
          Conv2d-464         [-1, 64, 128, 128]         110,656
ResidualDenseBlock-465         [-1, 64, 128, 128]               0
            RRDB-466         [-1, 64, 128, 128]               0
          Conv2d-467         [-1, 32, 128, 128]          18,464
       LeakyReLU-468         [-1, 32, 128, 128]               0
          Conv2d-469         [-1, 32, 128, 128]          27,680
       LeakyReLU-470         [-1, 32, 128, 128]               0
          Conv2d-471         [-1, 32, 128, 128]          36,896
       LeakyReLU-472         [-1, 32, 128, 128]               0
          Conv2d-473         [-1, 32, 128, 128]          46,112
       LeakyReLU-474         [-1, 32, 128, 128]               0
          Conv2d-475         [-1, 64, 128, 128]         110,656
ResidualDenseBlock-476         [-1, 64, 128, 128]               0
          Conv2d-477         [-1, 32, 128, 128]          18,464
       LeakyReLU-478         [-1, 32, 128, 128]               0
          Conv2d-479         [-1, 32, 128, 128]          27,680
       LeakyReLU-480         [-1, 32, 128, 128]               0
          Conv2d-481         [-1, 32, 128, 128]          36,896
       LeakyReLU-482         [-1, 32, 128, 128]               0
          Conv2d-483         [-1, 32, 128, 128]          46,112
       LeakyReLU-484         [-1, 32, 128, 128]               0
          Conv2d-485         [-1, 64, 128, 128]         110,656
ResidualDenseBlock-486         [-1, 64, 128, 128]               0
          Conv2d-487         [-1, 32, 128, 128]          18,464
       LeakyReLU-488         [-1, 32, 128, 128]               0
          Conv2d-489         [-1, 32, 128, 128]          27,680
       LeakyReLU-490         [-1, 32, 128, 128]               0
          Conv2d-491         [-1, 32, 128, 128]          36,896
       LeakyReLU-492         [-1, 32, 128, 128]               0
          Conv2d-493         [-1, 32, 128, 128]          46,112
       LeakyReLU-494         [-1, 32, 128, 128]               0
          Conv2d-495         [-1, 64, 128, 128]         110,656
ResidualDenseBlock-496         [-1, 64, 128, 128]               0
            RRDB-497         [-1, 64, 128, 128]               0
          Conv2d-498         [-1, 32, 128, 128]          18,464
       LeakyReLU-499         [-1, 32, 128, 128]               0
          Conv2d-500         [-1, 32, 128, 128]          27,680
       LeakyReLU-501         [-1, 32, 128, 128]               0
          Conv2d-502         [-1, 32, 128, 128]          36,896
       LeakyReLU-503         [-1, 32, 128, 128]               0
          Conv2d-504         [-1, 32, 128, 128]          46,112
       LeakyReLU-505         [-1, 32, 128, 128]               0
          Conv2d-506         [-1, 64, 128, 128]         110,656
ResidualDenseBlock-507         [-1, 64, 128, 128]               0
          Conv2d-508         [-1, 32, 128, 128]          18,464
       LeakyReLU-509         [-1, 32, 128, 128]               0
          Conv2d-510         [-1, 32, 128, 128]          27,680
       LeakyReLU-511         [-1, 32, 128, 128]               0
          Conv2d-512         [-1, 32, 128, 128]          36,896
       LeakyReLU-513         [-1, 32, 128, 128]               0
          Conv2d-514         [-1, 32, 128, 128]          46,112
       LeakyReLU-515         [-1, 32, 128, 128]               0
          Conv2d-516         [-1, 64, 128, 128]         110,656
ResidualDenseBlock-517         [-1, 64, 128, 128]               0
          Conv2d-518         [-1, 32, 128, 128]          18,464
       LeakyReLU-519         [-1, 32, 128, 128]               0
          Conv2d-520         [-1, 32, 128, 128]          27,680
       LeakyReLU-521         [-1, 32, 128, 128]               0
          Conv2d-522         [-1, 32, 128, 128]          36,896
       LeakyReLU-523         [-1, 32, 128, 128]               0
          Conv2d-524         [-1, 32, 128, 128]          46,112
       LeakyReLU-525         [-1, 32, 128, 128]               0
          Conv2d-526         [-1, 64, 128, 128]         110,656
ResidualDenseBlock-527         [-1, 64, 128, 128]               0
            RRDB-528         [-1, 64, 128, 128]               0
          Conv2d-529         [-1, 32, 128, 128]          18,464
       LeakyReLU-530         [-1, 32, 128, 128]               0
          Conv2d-531         [-1, 32, 128, 128]          27,680
       LeakyReLU-532         [-1, 32, 128, 128]               0
          Conv2d-533         [-1, 32, 128, 128]          36,896
       LeakyReLU-534         [-1, 32, 128, 128]               0
          Conv2d-535         [-1, 32, 128, 128]          46,112
       LeakyReLU-536         [-1, 32, 128, 128]               0
          Conv2d-537         [-1, 64, 128, 128]         110,656
ResidualDenseBlock-538         [-1, 64, 128, 128]               0
          Conv2d-539         [-1, 32, 128, 128]          18,464
       LeakyReLU-540         [-1, 32, 128, 128]               0
          Conv2d-541         [-1, 32, 128, 128]          27,680
       LeakyReLU-542         [-1, 32, 128, 128]               0
          Conv2d-543         [-1, 32, 128, 128]          36,896
       LeakyReLU-544         [-1, 32, 128, 128]               0
          Conv2d-545         [-1, 32, 128, 128]          46,112
       LeakyReLU-546         [-1, 32, 128, 128]               0
          Conv2d-547         [-1, 64, 128, 128]         110,656
ResidualDenseBlock-548         [-1, 64, 128, 128]               0
          Conv2d-549         [-1, 32, 128, 128]          18,464
       LeakyReLU-550         [-1, 32, 128, 128]               0
          Conv2d-551         [-1, 32, 128, 128]          27,680
       LeakyReLU-552         [-1, 32, 128, 128]               0
          Conv2d-553         [-1, 32, 128, 128]          36,896
       LeakyReLU-554         [-1, 32, 128, 128]               0
          Conv2d-555         [-1, 32, 128, 128]          46,112
       LeakyReLU-556         [-1, 32, 128, 128]               0
          Conv2d-557         [-1, 64, 128, 128]         110,656
ResidualDenseBlock-558         [-1, 64, 128, 128]               0
            RRDB-559         [-1, 64, 128, 128]               0
          Conv2d-560         [-1, 32, 128, 128]          18,464
       LeakyReLU-561         [-1, 32, 128, 128]               0
          Conv2d-562         [-1, 32, 128, 128]          27,680
       LeakyReLU-563         [-1, 32, 128, 128]               0
          Conv2d-564         [-1, 32, 128, 128]          36,896
       LeakyReLU-565         [-1, 32, 128, 128]               0
          Conv2d-566         [-1, 32, 128, 128]          46,112
       LeakyReLU-567         [-1, 32, 128, 128]               0
          Conv2d-568         [-1, 64, 128, 128]         110,656
ResidualDenseBlock-569         [-1, 64, 128, 128]               0
          Conv2d-570         [-1, 32, 128, 128]          18,464
       LeakyReLU-571         [-1, 32, 128, 128]               0
          Conv2d-572         [-1, 32, 128, 128]          27,680
       LeakyReLU-573         [-1, 32, 128, 128]               0
          Conv2d-574         [-1, 32, 128, 128]          36,896
       LeakyReLU-575         [-1, 32, 128, 128]               0
          Conv2d-576         [-1, 32, 128, 128]          46,112
       LeakyReLU-577         [-1, 32, 128, 128]               0
          Conv2d-578         [-1, 64, 128, 128]         110,656
ResidualDenseBlock-579         [-1, 64, 128, 128]               0
          Conv2d-580         [-1, 32, 128, 128]          18,464
       LeakyReLU-581         [-1, 32, 128, 128]               0
          Conv2d-582         [-1, 32, 128, 128]          27,680
       LeakyReLU-583         [-1, 32, 128, 128]               0
          Conv2d-584         [-1, 32, 128, 128]          36,896
       LeakyReLU-585         [-1, 32, 128, 128]               0
          Conv2d-586         [-1, 32, 128, 128]          46,112
       LeakyReLU-587         [-1, 32, 128, 128]               0
          Conv2d-588         [-1, 64, 128, 128]         110,656
ResidualDenseBlock-589         [-1, 64, 128, 128]               0
            RRDB-590         [-1, 64, 128, 128]               0
          Conv2d-591         [-1, 32, 128, 128]          18,464
       LeakyReLU-592         [-1, 32, 128, 128]               0
          Conv2d-593         [-1, 32, 128, 128]          27,680
       LeakyReLU-594         [-1, 32, 128, 128]               0
          Conv2d-595         [-1, 32, 128, 128]          36,896
       LeakyReLU-596         [-1, 32, 128, 128]               0
          Conv2d-597         [-1, 32, 128, 128]          46,112
       LeakyReLU-598         [-1, 32, 128, 128]               0
          Conv2d-599         [-1, 64, 128, 128]         110,656
ResidualDenseBlock-600         [-1, 64, 128, 128]               0
          Conv2d-601         [-1, 32, 128, 128]          18,464
       LeakyReLU-602         [-1, 32, 128, 128]               0
          Conv2d-603         [-1, 32, 128, 128]          27,680
       LeakyReLU-604         [-1, 32, 128, 128]               0
          Conv2d-605         [-1, 32, 128, 128]          36,896
       LeakyReLU-606         [-1, 32, 128, 128]               0
          Conv2d-607         [-1, 32, 128, 128]          46,112
       LeakyReLU-608         [-1, 32, 128, 128]               0
          Conv2d-609         [-1, 64, 128, 128]         110,656
ResidualDenseBlock-610         [-1, 64, 128, 128]               0
          Conv2d-611         [-1, 32, 128, 128]          18,464
       LeakyReLU-612         [-1, 32, 128, 128]               0
          Conv2d-613         [-1, 32, 128, 128]          27,680
       LeakyReLU-614         [-1, 32, 128, 128]               0
          Conv2d-615         [-1, 32, 128, 128]          36,896
       LeakyReLU-616         [-1, 32, 128, 128]               0
          Conv2d-617         [-1, 32, 128, 128]          46,112
       LeakyReLU-618         [-1, 32, 128, 128]               0
          Conv2d-619         [-1, 64, 128, 128]         110,656
ResidualDenseBlock-620         [-1, 64, 128, 128]               0
            RRDB-621         [-1, 64, 128, 128]               0
          Conv2d-622         [-1, 32, 128, 128]          18,464
       LeakyReLU-623         [-1, 32, 128, 128]               0
          Conv2d-624         [-1, 32, 128, 128]          27,680
       LeakyReLU-625         [-1, 32, 128, 128]               0
          Conv2d-626         [-1, 32, 128, 128]          36,896
       LeakyReLU-627         [-1, 32, 128, 128]               0
          Conv2d-628         [-1, 32, 128, 128]          46,112
       LeakyReLU-629         [-1, 32, 128, 128]               0
          Conv2d-630         [-1, 64, 128, 128]         110,656
ResidualDenseBlock-631         [-1, 64, 128, 128]               0
          Conv2d-632         [-1, 32, 128, 128]          18,464
       LeakyReLU-633         [-1, 32, 128, 128]               0
          Conv2d-634         [-1, 32, 128, 128]          27,680
       LeakyReLU-635         [-1, 32, 128, 128]               0
          Conv2d-636         [-1, 32, 128, 128]          36,896
       LeakyReLU-637         [-1, 32, 128, 128]               0
          Conv2d-638         [-1, 32, 128, 128]          46,112
       LeakyReLU-639         [-1, 32, 128, 128]               0
          Conv2d-640         [-1, 64, 128, 128]         110,656
ResidualDenseBlock-641         [-1, 64, 128, 128]               0
          Conv2d-642         [-1, 32, 128, 128]          18,464
       LeakyReLU-643         [-1, 32, 128, 128]               0
          Conv2d-644         [-1, 32, 128, 128]          27,680
       LeakyReLU-645         [-1, 32, 128, 128]               0
          Conv2d-646         [-1, 32, 128, 128]          36,896
       LeakyReLU-647         [-1, 32, 128, 128]               0
          Conv2d-648         [-1, 32, 128, 128]          46,112
       LeakyReLU-649         [-1, 32, 128, 128]               0
          Conv2d-650         [-1, 64, 128, 128]         110,656
ResidualDenseBlock-651         [-1, 64, 128, 128]               0
            RRDB-652         [-1, 64, 128, 128]               0
          Conv2d-653         [-1, 32, 128, 128]          18,464
       LeakyReLU-654         [-1, 32, 128, 128]               0
          Conv2d-655         [-1, 32, 128, 128]          27,680
       LeakyReLU-656         [-1, 32, 128, 128]               0
          Conv2d-657         [-1, 32, 128, 128]          36,896
       LeakyReLU-658         [-1, 32, 128, 128]               0
          Conv2d-659         [-1, 32, 128, 128]          46,112
       LeakyReLU-660         [-1, 32, 128, 128]               0
          Conv2d-661         [-1, 64, 128, 128]         110,656
ResidualDenseBlock-662         [-1, 64, 128, 128]               0
          Conv2d-663         [-1, 32, 128, 128]          18,464
       LeakyReLU-664         [-1, 32, 128, 128]               0
          Conv2d-665         [-1, 32, 128, 128]          27,680
       LeakyReLU-666         [-1, 32, 128, 128]               0
          Conv2d-667         [-1, 32, 128, 128]          36,896
       LeakyReLU-668         [-1, 32, 128, 128]               0
          Conv2d-669         [-1, 32, 128, 128]          46,112
       LeakyReLU-670         [-1, 32, 128, 128]               0
          Conv2d-671         [-1, 64, 128, 128]         110,656
ResidualDenseBlock-672         [-1, 64, 128, 128]               0
          Conv2d-673         [-1, 32, 128, 128]          18,464
       LeakyReLU-674         [-1, 32, 128, 128]               0
          Conv2d-675         [-1, 32, 128, 128]          27,680
       LeakyReLU-676         [-1, 32, 128, 128]               0
          Conv2d-677         [-1, 32, 128, 128]          36,896
       LeakyReLU-678         [-1, 32, 128, 128]               0
          Conv2d-679         [-1, 32, 128, 128]          46,112
       LeakyReLU-680         [-1, 32, 128, 128]               0
          Conv2d-681         [-1, 64, 128, 128]         110,656
ResidualDenseBlock-682         [-1, 64, 128, 128]               0
            RRDB-683         [-1, 64, 128, 128]               0
          Conv2d-684         [-1, 32, 128, 128]          18,464
       LeakyReLU-685         [-1, 32, 128, 128]               0
          Conv2d-686         [-1, 32, 128, 128]          27,680
       LeakyReLU-687         [-1, 32, 128, 128]               0
          Conv2d-688         [-1, 32, 128, 128]          36,896
       LeakyReLU-689         [-1, 32, 128, 128]               0
          Conv2d-690         [-1, 32, 128, 128]          46,112
       LeakyReLU-691         [-1, 32, 128, 128]               0
          Conv2d-692         [-1, 64, 128, 128]         110,656
ResidualDenseBlock-693         [-1, 64, 128, 128]               0
          Conv2d-694         [-1, 32, 128, 128]          18,464
       LeakyReLU-695         [-1, 32, 128, 128]               0
          Conv2d-696         [-1, 32, 128, 128]          27,680
       LeakyReLU-697         [-1, 32, 128, 128]               0
          Conv2d-698         [-1, 32, 128, 128]          36,896
       LeakyReLU-699         [-1, 32, 128, 128]               0
          Conv2d-700         [-1, 32, 128, 128]          46,112
       LeakyReLU-701         [-1, 32, 128, 128]               0
          Conv2d-702         [-1, 64, 128, 128]         110,656
ResidualDenseBlock-703         [-1, 64, 128, 128]               0
          Conv2d-704         [-1, 32, 128, 128]          18,464
       LeakyReLU-705         [-1, 32, 128, 128]               0
          Conv2d-706         [-1, 32, 128, 128]          27,680
       LeakyReLU-707         [-1, 32, 128, 128]               0
          Conv2d-708         [-1, 32, 128, 128]          36,896
       LeakyReLU-709         [-1, 32, 128, 128]               0
          Conv2d-710         [-1, 32, 128, 128]          46,112
       LeakyReLU-711         [-1, 32, 128, 128]               0
          Conv2d-712         [-1, 64, 128, 128]         110,656
ResidualDenseBlock-713         [-1, 64, 128, 128]               0
            RRDB-714         [-1, 64, 128, 128]               0
          Conv2d-715         [-1, 64, 128, 128]          36,928
          Conv2d-716         [-1, 64, 256, 256]          36,928
       LeakyReLU-717         [-1, 64, 256, 256]               0
          Conv2d-718         [-1, 64, 512, 512]          36,928
       LeakyReLU-719         [-1, 64, 512, 512]               0
          Conv2d-720         [-1, 64, 512, 512]          36,928
       LeakyReLU-721         [-1, 64, 512, 512]               0
          Conv2d-722          [-1, 3, 512, 512]           1,731


