module {
  func.func @main(%arg0: tensor<1x784x!FHE.eint<7>>) -> tensor<1x10x!FHE.eint<7>> {
    %cst = arith.constant dense<"…"> : tensor<192x10xi8>
    %cst_0 = arith.constant dense<"…"> : tensor<192x192xi8>
    %cst_1 = arith.constant dense<"…"> : tensor<192x192xi8>
    %cst_2 = arith.constant dense<"…"> : tensor<784x192xi8>
    %c64_i8 = arith.constant 64 : i8
    %cst_3 = arith.constant dense<"…"> : tensor<128xi64>
    %0 = "FHELinalg.apply_lookup_table"(%arg0, %cst_3) : (tensor<1x784x!FHE.eint<7>>, tensor<128xi64>) -> tensor<1x784x!FHE.eint<7>>
    %cst_4 = tensor.from_elements %c64_i8 : tensor<1xi8>
    %cst_5 = tensor.from_elements %c64_i8 : tensor<1xi8>
    %cst_6 = tensor.from_elements %c64_i8 : tensor<1xi8>
    %1 = "FHELinalg.matmul_eint_int"(%0, %cst_2) : (tensor<1x784x!FHE.eint<7>>, tensor<784x192xi8>) -> tensor<1x192x!FHE.eint<7>>
    %cst_7 = arith.constant dense<"…"> : tensor<32x128xi64>
    %cst_8 = arith.constant dense<"…"> : tensor<1x192xindex>
    %2 = "FHELinalg.apply_mapped_lookup_table"(%1, %cst_7, %cst_8) : (tensor<1x192x!FHE.eint<7>>, tensor<32x128xi64>, tensor<1x192xindex>) -> tensor<1x192x!FHE.eint<7>>
    %3 = "FHELinalg.matmul_eint_int"(%2, %cst_1) : (tensor<1x192x!FHE.eint<7>>, tensor<192x192xi8>) -> tensor<1x192x!FHE.eint<7>>
    %4 = "FHELinalg.add_eint_int"(%3, %cst_6) : (tensor<1x192x!FHE.eint<7>>, tensor<1xi8>) -> tensor<1x192x!FHE.eint<7>>
    %cst_9 = arith.constant dense<"…"> : tensor<71x128xi64>
    %cst_10 = arith.constant dense<"…"> : tensor<1x192xindex>
    %5 = "FHELinalg.apply_mapped_lookup_table"(%4, %cst_9, %cst_10) : (tensor<1x192x!FHE.eint<7>>, tensor<71x128xi64>, tensor<1x192xindex>) -> tensor<1x192x!FHE.eint<7>>
    %6 = "FHELinalg.matmul_eint_int"(%5, %cst_0) : (tensor<1x192x!FHE.eint<7>>, tensor<192x192xi8>) -> tensor<1x192x!FHE.eint<7>>
    %7 = "FHELinalg.add_eint_int"(%6, %cst_5) : (tensor<1x192x!FHE.eint<7>>, tensor<1xi8>) -> tensor<1x192x!FHE.eint<7>>
    %cst_11 = arith.constant dense<"…"> : tensor<42x128xi64>
    %cst_12 = arith.constant dense<"…"> : tensor<1x192xindex>
    %8 = "FHELinalg.apply_mapped_lookup_table"(%7, %cst_11, %cst_12) : (tensor<1x192x!FHE.eint<7>>, tensor<42x128xi64>, tensor<1x192xindex>) -> tensor<1x192x!FHE.eint<7>>
    %9 = "FHELinalg.matmul_eint_int"(%8, %cst) : (tensor<1x192x!FHE.eint<7>>, tensor<192x10xi8>) -> tensor<1x10x!FHE.eint<7>>
    %10 = "FHELinalg.add_eint_int"(%9, %cst_4) : (tensor<1x10x!FHE.eint<7>>, tensor<1xi8>) -> tensor<1x10x!FHE.eint<7>>
    %cst_13 = arith.constant dense<"…"> : tensor<128xi64>
    %11 = "FHELinalg.apply_lookup_table"(%10, %cst_13) : (tensor<1x10x!FHE.eint<7>>, tensor<128xi64>) -> tensor<1x10x!FHE.eint<7>>
    return %11 : tensor<1x10x!FHE.eint<7>>
  }
}
